model_dense.onnx (onnx, 2946 bytes, 6 tensors)

sequential_1/dense_6/MatMul/ReadVariableOp:0 f4 [8, 4]
00000000: b204 033f 93e1 1e3e df71 10bf 57c4 64be
00000010: 42a5 c8be cfa2 e93d 6049 963e 5839 13bf
00000020: 26b9 29bf 144a 513d 21b2 743e 5c12 173e
00000030: 6ce7 f4be 3393 883d 8663 3abe 7324 20be
00000040: d1b3 d0be 78a9 a53e c0e2 033f 7a84 e8bd
00000050: 11d6 193e 5efe 00bf 2208 1abf 129d 0abf
00000060: c46f 19bf 7054 233f 8016 05bf 18f3 9d3e
00000070: 00d1 94bd dc58 153e 04e4 813e 6042 23bf
0.5117904 0.15515737 -0.56423753 -0.22340523 -0.39188582 0.114080064 0.29352856 -0.57509375
-0.6629814 0.051096037 0.23896076 0.14753097 -0.4783281 0.06668701 -0.18202028 -0.15638904
-0.4076219 0.32355857 0.5151787 -0.11353393 0.15023066 -0.50388134 -0.6016866 -0.5414592
-0.59936166 0.63800716 -0.5198746 0.30849528 -0.07266426 0.14584678 0.25369275 -0.63773155

sequential_1/dense_6/BiasAdd/ReadVariableOp:0 f4 [4]
00000000: e1ca 1bbc 3293 a23c 5478 cdbc 69b4 793c
-0.009508819 0.019845579 -0.025081791 0.015240767

sequential_1/dense_5/MatMul/ReadVariableOp:0 f4 [32, 8]
00000000: e30f be3d a9bf 61be 1d79 a5be b152 a7be
00000010: 20b8 0d3e a747 fa3c efd1 123d bb5f a63e
00000020: f94d 1f3e ab87 48be 6a76 7b3e 3114 adbe
00000030: 7c3f 44be 3fa8 6f3e ec49 573d 633e 08be
00000040: 3288 673d 9a69 d1bd 9cdf 3b3e b5b7 c1be
00000050: 8fb1 bf3e 44c8 57bd b6a4 253e 31d1 24be
00000060: 7700 873c 7be0 b83e edc2 013d fb1e cb3e
00000070: 0c26 813e ae34 bfbd 377d 103a ef89 91be
00000080: 15ee b13e 6d61 3cbe e5df 043e 2eaa 84be
00000090: 92b6 a2be 8c11 82bd d79c f03d 8ab8 81be
000000a0: 40c3 8cbd fb43 ba3e b63b 3dbe 32b6 603d
000000b0: d065 733e e24c 633d b436 9ebe c923 02bd
000000c0: 73d7 4e3d 95d3 733e a03e bdbe 5ee6 47be
000000d0: ca3b 903e f930 843d 061a 16be 3bb0 a6be
000000e0: fa78 9b3e 597b b63e dc41 9ebe d076 5abe
000000f0: b8b1 61be aa26 073e 43dc 54bd da90 76be
00000100: 5402 973a de78 88be 2031 4b3e 543f 783e
00000110: 23ec 8f3d 1edd 64be 74f8 6cba 60cc d239
00000120: 2be8 23be 32bc 84be 3482 bd3e 0914 463e
00000130: c337 633d 9e1b 9c3e f53a 353a 9523 a6be
00000140: d441 9cbe 1ac3 f1bc 8057 a13d ab42 3dbe
00000150: d00b 693e 7918 8fbe fa83 333a 0381 60be
00000160: 807c 8d3e aa0b 15be cba4 863e 6232 cbbb
00000170: 12d7 5cbe 5995 593d 34fc 64be c0b5 543d
00000180: 4e92 88bd 5004 f5bc 1d1a 563d 8c76 c13c
00000190: 6c1d 39be 62e0 9ebd 7196 d83c 3619 8b3c
000001a0: 746f 7e3e bc1a 133e 9705 103e 4159 7cbe
000001b0: 9a66 ecbd 8446 94be 0478 833d 7ee2 adbc
000001c0: 5203 8fbe c8cd bd3e 5e40 ad3e 03ce 9a3e
000001d0: 328d b9bd 548f 923e 1fbb 8b3e 0d98 b3ba
000001e0: 5a0e 8d3e 1835 63be f314 1fbe 0be7 183e
000001f0: fd7d 58be ce2c 473b ff30 3fbe d87e 6abe
00000200: 44e4 dfbd ec64 573e 4df0 293e c994 8b3e
00000210: f679 82be c5fc 3f3e 173c b93d 5011 64bd
00000220: 8ec2 7dbe 50f2 b0bd da09 1e3e 2414 563e
00000230: 3915 a73e 7ad1 dc3d dd3f 38bd 4c7f da3d
00000240: 5146 483e 29a6 9f3e a625 4dbe 8b73 ac3e
00000250: ff1a babe 8c91 d0ba 6267 a539 971f f73d
00000260: 504f 84be 35c8 0dbd 3303 62bc b35a 08be
00000270: 198d fc3d 09e0 ccbd 969d 21bd 0961 993e
00000280: f34d 9fbe 0cf7 29be 098d bc3d b419 263e
00000290: 43d1 843e 10a0 fa3c 16ce 313a f2aa 1c3e
000002a0: e32d babd 96cb afbe 4ed9 37bd 96ff 98be
000002b0: ec95 bd3d d53a dfbd bdf3 523e c2bd 61be
000002c0: b8c4 813e 58f8 37bc dfdf 81bd a531 de3d
000002d0: d1fb b83e b6ac 94be 4fa0 58be 3011 dc3c
000002e0: 5d10 a53e b678 a03e 745a 76be c19f ccbe
000002f0: e455 023e af60 9fbe da75 eebd bfde 28be
00000300: ef5b c9bb 38c8 64be 5fc4 c9bd 0475 fbbd
00000310: 0f32 1e3e adc7 99bd 44bf 603e 3e5d 1dbe
00000320: 1466 923d 09da 4dbe 6b0a 52be afa9 ac3e
00000330: 7009 93bd d19d a4be 814c 65be e67b 8e3e
00000340: f0df 353e 3a3f 2ebe 138f 9f3e c866 49be
00000350: e09e 953e 98bb b13c be6e 14be d8cb a7be
00000360: 00fd bb3e 0686 b0be cf82 5b3e be50 683e
00000370: 3d9f 7c3d 2c44 5bbe dad3 91be dd9f 31ba
00000380: c62b 8e3e 67ba adbd 5bf4 753e 8fea 883c
00000390: e551 37be 338d 073e 9137 6cbe 4c86 773c
000003a0: 8cf2 123e 190b 923e b5fa 17be 9aaa a83e
000003b0: a2f6 3d3e 5220 00bd e638 9ebe 1a1d d7bc
000003c0: 8ff8 bf3d 95f2 603e e137 08bd a4e7 04be
000003d0: 2702 ffbd 0df4 febd 9bd2 25be c879 3cbe
000003e0: 8711 223e 7dbe 9abd 665d e6bd 74ec 02be
000003f0: f927 5dbd a2eb 5dbe c3c3 663e 2c75 b5b9
0.09280374 -0.22045769 -0.32318965 -0.32680276 0.1383977 0.030551745 0.03584474 0.32494912
0.15557088 -0.19583003 0.2455689 -0.33804467 -0.19164842 0.23404025 0.05256073 -0.13305049
0.05652637 -0.1022522 0.18347019 -0.3783547 0.37440154 -0.052681223 0.16176113 -0.16095425
0.016479714 0.36108765 0.031680036 0.39672074 0.2522434 -0.0933622 0.00055118225 -0.28425547
0.34751955 -0.1839654 0.12976034 -0.25911087 -0.31779915 -0.06351003 0.11748665 -0.25336105
-0.068731785 0.3637999 -0.18479809 0.054861255 0.23769307 0.055493243 -0.3090111 -0.03177241
0.050498437 0.23811181 -0.36961842 -0.19521472 0.28170615 0.06454653 -0.14658365 -0.32556328
0.30365735 0.35640982 -0.30909622 -0.21334386 -0.2204045 0.13198343 -0.05196787 -0.24078694
0.001152108 -0.26654714 0.19842958 0.24242908 0.070274614 -0.22349975 -0.0009039708 0.00040206593
-0.16006534 -0.25924832 0.370134 0.1934358 0.0554731 0.3048982 0.00069133873 -0.32449022
-0.30518973 -0.029511977 0.078780174 -0.18482463 0.22758412 -0.2794836 0.0006847974 -0.21924214
0.27634048 -0.1455523 0.26297602 -0.0062010745 -0.21566418 0.053120945 -0.22361833 0.051931143
-0.066685304 -0.029909283 0.052270997 0.023616098 -0.1807763 -0.077576414 0.026438924 0.016979795
0.24847203 0.14365667 0.14064632 -0.24643423 -0.11543007 -0.2896005 0.064193755 -0.021226164
-0.2793222 0.3707106 0.3383817 0.302353 -0.09060134 0.28624976 0.272912 -0.0013701931
0.27550012 -0.22188222 -0.15535335 0.14931886 -0.2114181 0.0030391696 -0.18671034 -0.2289995
-0.1093221 0.21034592 0.16595574 0.27261952 -0.25483674 0.18748768 0.09044664 -0.055680573
-0.24781248 -0.086399674 0.15433446 0.2090612 0.3263338 0.10782142 -0.04498278 0.10668811
0.19558074 0.31181458 -0.20033893 0.33681902 -0.3634872 -0.0015912517 0.0003154828 0.12066572
-0.2584176 -0.03461476 -0.013794708 -0.13315849 0.123316 -0.10003669 -0.039456926 0.29956844
-0.31114158 -0.16598147 0.09206588 0.16220742 0.25940904 0.030593902 0.00067827234 0.15299585
-0.090907834 -0.3433501 -0.044884972 -0.29882497 0.09257111 -0.10899893 0.20600791 -0.22045043
0.25345397 -0.011228643 -0.06341528 0.10849313 0.3612962 -0.29038018 -0.21154903 0.026863664
0.32239047 0.31342095 -0.24057943 -0.39965633 0.12728077 -0.3112845 -0.11643572 -0.16491221
-0.0061449925 -0.22342002 -0.09851908 -0.12278178 0.15448783 -0.07508788 0.21947962 -0.153676
0.07148376 -0.20102705 -0.20511787 0.33723208 -0.071795344 -0.32151654 -0.22392465 0.27828902
0.17761207 -0.17016307 0.31163844 -0.19668114 0.29222775 0.021695897 -0.1449537 -0.32772708
0.3671646 -0.34477252 0.21436618 0.2268705 0.0616753 -0.21412724 -0.28481942 -0.00067758356
0.2776777 -0.08482819 0.24018995 0.016713409 -0.17902334 0.13237457 -0.23068072 0.015107702
0.14350337 0.28524092 -0.14841731 0.3294266 0.18551114 -0.031280823 -0.30902785 -0.026258994
0.09373581 0.21967538 -0.033256415 -0.12978989 -0.124515824 -0.12448893 -0.16193621 -0.18405831
0.15826999 -0.07555864 -0.11248283 -0.12785512 -0.0539932 -0.21671918 0.22535615 -0.0003461031

sequential_1/dense_5/BiasAdd/ReadVariableOp:0 f4 [8]
00000000: cde3 ccb9 a72e e4bb ee3f 063c b229 65bc
00000010: 2f4f 2f3a 4502 44ba 0000 0000 0000 0000
-0.00039079637 -0.006963569 0.008193953 -0.013986992 0.00066875195 -0.0007477145 0.0 0.0

sequential_1/batch_normalization_1/batchnorm/sub:0 f4 [8]
00000000: 036c 29c0 c67f f7be cf11 2ebf e104 d2be
00000010: 76f9 9ebf f925 ebbd 75d7 b63c abaf 8ebc
-2.6472175 -0.4833967 -0.67995924 -0.41019347 -1.241988 -0.11481852 0.022319535 -0.01741775

sequential_1/batch_normalization_1/batchnorm/mul:0 f4 [8]
00000000: 2da1 b83c c953 0d3d 145e b83c 5bac dd3c
00000010: 1313 a03c d6ee 883e 97e2 ac3f 97e2 ac3f
0.022537792 0.034503732 0.022505797 0.027059725 0.019540345 0.26744717 1.350665 1.350665
